packages/smart-home/wyoming/openwakeword/models/jets_un.onnx (onnx, 205430 bytes, 9 tensors)

layer1.weight f4 [32, 1536]
000000 da be c8 3c 48 6c b3 3b 2d b1 56 bc 60 32 3e bd
       0.024505068 0.0054755546 -0.013103765 -0.04643476
000010 16 c6 b4 3c f8 48 38 3c e0 e7 4a 3b f6 dc 8c 3c
       0.022067111 0.011247866 0.0030960962 0.017195206
000020 ce 92 a8 bc d9 66 3f bc 8c ff bd 3c 9b a3 b4 3c
       -0.020577814 -0.011682236 0.023193143 0.02205067
000030 bc e7 54 3c e3 df 85 3c 8a a9 b9 bc 83 67 8d 3b
       0.012994703 0.01634211 -0.02266385 0.004315318
000040 cd 8f 2e bc 96 49 6a 3b 37 55 b8 39 f9 f4 b2 3b
       -0.010654402 0.0035749427 0.00035158705 0.005461332
000050 47 6d 8f bb 0f 77 98 3c 28 b4 bc bc 01 6d 65 3c
       -0.0043770405 0.018611459 -0.023035124 0.014003039
000060 19 ee fa 3c 61 62 88 bc 23 df b7 3c f5 56 28 b9
       0.030631112 -0.016648473 0.022445267 -0.00016054123
000070 77 b8 b3 3c 3e 1b 1a 3c 0e c1 e7 3c ba 6c 3e 3c
       0.021938546 0.009405909 0.028290298 0.011622602
000080 8e 1b 25 3a fe 7b d0 bc 3f 4d b1 bc 89 5c 73 3a
       0.00062983565 -0.02544975 -0.02164328 0.0009283503
000090 b5 a4 21 bc 4b 1f d5 ba 04 72 82 bb 7d c8 08 bb
       -0.009865929 -0.0016259936 -0.003980877 -0.0020871453
0000a0 74 06 9c 3c d0 cf 56 3c 6c 60 4a 3a 9b db 97 bc
       0.019046046 0.01311107 0.00077200565 -0.018537333
0000b0 25 85 a7 bc 4a ea 3c bc 6a 5c 63 3c ad bf 75 bc
       -0.02044923 -0.011530468 0.013877014 -0.014999312
0000c0 05 dc 90 3c 18 64 ea bb 6b 26 b8 3c e2 de aa bc
       0.017683038 -0.0071530454 0.022479257 -0.020858232
0000d0 c3 d6 42 3c 2f aa b0 3c 70 e8 27 3b 73 fc 53 bb
       0.0118920235 0.021565525 0.0025620721 -0.0032346516
0000e0 ae ae 16 bc 80 24 94 3c df 16 7f 3c b4 da 0f 39
       -0.00919692 0.01808381 0.015569418 0.00013719016
0000f0 61 fc 41 bc 55 82 02 ba 9f cc b5 3b 1f 78 94 bc
       -0.011839957 -0.00049785274 0.0055480744 -0.018123684
000100 94 99 88 3c 84 a8 12 3d e2 35 0e 3d 5d 11 6a bc
       0.016674794 0.03580524 0.034719355 -0.014286366
000110 1d 53 5a 3c 55 6c 73 3c 1c 79 d0 bc ee b4 8c 3c
       0.01332548 0.014857371 -0.025448374 0.017176118
000120 e3 01 3a bc 10 13 07 3c aa 52 f3 bb f8 28 ca 3c
       -0.011352989 0.008244291 -0.007425626 0.024677739
000130 fb 5c 6e bc 5c 79 8e 3c 6c ae 87 3c 9b 51 57 3c
       -0.014548535 0.017391853 0.016562663 0.013142015
000140 f1 f9 43 bc e2 f6 93 bc 87 37 24 3c 2d 50 d1 bb
       -0.011961446 -0.018062059 0.010023004 -0.0063877315
000150 95 b0 2e 3b 23 fb 20 bd 88 83 02 3c ef 81 fb bc
       0.0026655544 -0.039302003 0.00796593 -0.030701606
000160 e1 ca 61 bb 87 8b ce 3c f6 85 1e bc bb 95 c3 bb
       -0.00344532 0.025213016 -0.009675493 -0.005968777
000170 32 f9 99 3a 07 f7 6d 3c de a6 94 3c 09 13 1e bc
       0.001174724 0.014524228 0.018145975 -0.009648093
000180 32 97 89 3c 23 d2 df 3c 80 ba 55 bc 4b 48 ca bc
       0.016795728 0.02732188 -0.013044953 -0.024692675
000190 b5 cc b1 3c 34 4f da 3b 3c 61 81 bc 77 ab c2 3b
       0.021704057 0.006662274 -0.015793435 0.0059408504
0001a0 fe cb 0a bd 73 40 83 3c 37 53 bc bc 9b 33 a7 3c
       -0.03388595 0.016021943 -0.022988899 0.02041035
0001b0 f0 7a d1 bc 12 1b c2 3c 48 a3 8d bc b0 7e b2 bb
       -0.025571316 0.023694549 -0.017289773 -0.0054472312
0001c0 36 1a 52 3c 25 3e 04 3b 43 eb a0 3b d3 be 4d ba
       0.012823632 0.0020178643 0.004910858 -0.00078485644
0001d0 de a0 df bc 8c 08 e4 3b d5 f1 a1 3c 0d 61 ef 3b
       -0.027298387 0.0069590267 0.019768635 0.0073052705
0001e0 01 1e d7 bb b0 c1 d8 3c 58 ea 47 3c d5 bc 2e bc
       -0.006564856 0.026459545 0.012201868 -0.010665138
0001f0 37 78 b7 3c 5d 83 9c bb dd 3b 5c bc a3 eb 9f bc
       0.02239619 -0.004776402 -0.013442007 -0.01952154
000200 69 9f 40 bb f8 af 28 bc 9f ad 84 3c 71 8b 85 3c
       -0.002939189 -0.0102958605 0.01619607 0.016301842
000210 00 4a 46 3b 02 55 a2 bc 64 ff b6 3b 5e 08 9e 3c
       0.003025651 -0.019815926 0.005584644 0.0192911
000220 6e 2a b2 bc 64 4a a8 3a 1d d0 7b bb e5 cd a4 3c
       -0.021748748 0.0012839553 -0.0038423606 0.02011771
000230 2e 48 ad bc 13 66 80 3c a6 35 c2 bc e2 4d 63 bb
       -0.021152582 0.015673673 -0.023707222 -0.0034683873
000240 92 1e a4 3c 41 e8 3b 3c 86 e5 b0 3b 3c 28 e4 3b
       0.020034108 0.011468948 0.005398455 0.006962804
000250 f0 01 1d bc 4a ab 1f 3d 68 8f c1 3b a4 5d 56 bc
       -0.0095829815 0.038981713 0.005906988 -0.013083849
000260 20 b9 8e bb 5d c1 e6 bb 7b a9 43 bc 24 bc f6 bc
       -0.0043555647 -0.0070420937 -0.011942263 -0.03011901
000270 50 a1 5d 3b 54 8b a4 bb 88 ad dd bc f4 ef 80 bc
       0.0033818074 -0.005021492 -0.027060285 -0.015739419
000280 0f fc 60 39 67 3e 89 bc 85 f6 cd 3c 3d 11 9e bc
       0.00021456204 -0.016753389 0.025141964 -0.01929533
000290 b3 bb 17 3c a6 b3 b0 3c 89 3f d2 bc 53 01 a8 39
       0.00926106 0.021570038 -0.025665062 0.00032044444
0002a0 23 8e 01 3d 55 39 2a 3b ba 58 b5 bc 0b 34 66 bc
       0.031629693 0.0025974114 -0.022137035 -0.014050494
0002b0 b1 ae 45 bc 7d a9 c3 bc 16 9a 6f 3c 95 9e 97 bc
       -0.012065575 -0.02388453 0.014624139 -0.018508235
0002c0 42 92 19 bc b1 88 be bc 4f 64 9b 3c 58 75 7d bc
       -0.0093732495 -0.023258539 0.01896873 -0.015469871
0002d0 93 a8 a3 b8 e1 fb 33 bc b3 19 8b 3a 04 03 a8 3c
       -7.803845e-05 -0.010985346 0.0010612517 0.02050925
0002e0 06 97 12 bb a3 e2 78 bc cb e9 15 3c 64 30 2d 3c
       -0.002236785 -0.015190753 0.009149979 0.010570619
0002f0 67 89 88 3c c3 7b a8 bc 9d ba 06 3d cb 44 78 bb
       0.016667081 -0.020566827 0.032892812 -0.00378828
000300 99 79 fc b9 9e 8e 28 3b 34 70 9d 3b 35 a5 2b bc
       -0.00048155783 0.0025719772 0.0048046354 -0.0104764
000310 0a bf 81 3c ac 45 c4 3c f4 c0 8f bc eb f7 67 3c
       0.015838165 0.023959003 -0.017548062 0.014158229
000320 83 20 63 bc 7d 29 5b bc 70 92 e5 3b f0 ed 21 3b
       -0.013862732 -0.013376591 0.007005982 0.0024708472
000330 5e da 8a bc ac cf a4 ba fe 61 42 3c 9f 9c 7a 3c
       -0.016949829 -0.0012574098 0.0118641835 0.01529613
000340 88 18 19 bb 9e 4a 48 3a 44 69 a1 3c cb 4a 3f 3c
       -0.002336057 0.00076405134 0.019703515 0.011675547
000350 a2 bd 90 bc c7 29 b6 bb 7f 8b 91 bc b0 7a 4f 3c
       -0.017668549 -0.0055591795 -0.017766712 0.012663528
000360 10 61 47 39 fa c8 43 bc 62 a8 e0 3b 9a 8c 54 bb
       0.00019014277 -0.011949772 0.0068560103 -0.0032432438
000370 72 9b 28 3b cb 47 0f 3b f0 9f 49 bc 92 ca 29 b9
       0.0025727418 0.002186286 -0.0123061985 -0.00016192559
000380 85 5a be bc c0 c1 49 3c 94 cd b2 bc f2 b9 90 bc
       -0.023236522 0.01231426 -0.021826543 -0.01766679
000390 64 55 2a 3c df 97 d0 bc cc 3d 36 3b 57 c6 61 3c
       0.010396335 -0.025463043 0.002780783 0.013780198
0003a0 27 cc 4d 3c e7 9b ae bc e2 d1 4b 3c 76 72 9a bc
       0.012560881 -0.021314574 0.012440177 -0.018853407
0003b0 37 af e4 bc b2 0d c9 3c a8 4e ac 3b 18 4b 52 bc
       -0.02791558 0.024542663 0.0052584 -0.012835287
0003c0 ce 79 8a 3c 20 36 4d 3c 93 50 68 3c 06 1c 8a bc
       0.016903784 0.012525111 0.014179367 -0.016859066
0003d0 7e d2 5e 3c 5a 85 c3 3c 59 1f ac bc f5 c4 c4 3b
       0.01359999 0.023867298 -0.021011041 0.0060049244
0003e0 a9 e8 1f 3c 9f 27 b3 bc d7 32 29 bc 70 12 99 3c
       0.00976006 -0.021869479 -0.010327063 0.01868555
0003f0 dd 16 ac 3c ac 31 19 bc 41 55 a0 bc 27 ee 9c bc
       0.021006996 -0.009350222 -0.019571902 -0.019156529

layer1.bias f4 [32]
000000 47 99 3d bc 2f af 7c 3c 24 c1 d9 bb ee 5e cf 3c
       -0.011572189 0.015422626 -0.0066453386 0.02531382
000010 cd 46 09 bc a7 52 9f bc e1 67 3d 3c 59 ff 13 bc
       -0.008378697 -0.019448591 0.011560411 -0.009033048
000020 a1 d2 c1 bc 47 84 43 bc a2 9c 3a bb ee fc 27 3c
       -0.023660006 -0.011933393 -0.0028474708 0.010253174
000030 c7 0d 01 bc d3 f4 62 3c 26 9d c2 bc bd 44 22 3c
       -0.00787682 0.013852316 -0.023756575 0.009904084
000040 91 be a6 3b 35 89 a9 3b 10 42 3c bc 2a 12 83 3c
       0.0050886353 0.005173827 -0.01149036 0.015999872
000050 2e 54 63 3b a4 33 34 3c bc 5d 50 bc 0c 62 e0 3b
       0.0034687626 0.01099864 -0.0127176605 0.0068476256
000060 66 7c 2a 3c 2f 81 82 bc 9e 91 1d 3c b4 d7 8b bc
       0.010405635 -0.01593074 0.009617237 -0.017070629
000070 de 30 01 bb 40 ae 3e bc 80 31 8a bc 5b e4 b9 3c
       -0.0019712965 -0.011638224 -0.016869307 0.022691896

layernorm1.weight f4 [32]
000000 1f 50 7d 3f d4 be 80 3f 63 ef 81 3f 20 48 77 3f
       0.9895038 1.0058236 1.015118 0.9659443
000010 d3 b5 77 3f f9 8d 7a 3f 52 23 7c 3f b4 cc 87 3f
       0.96761817 0.97872883 0.98491395 1.0609345
000020 3d 03 83 3f 12 1c 7e 3f bf a3 7d 3f e6 48 81 3f
       1.0235363 0.9926158 0.9907798 1.0100372
000030 e6 98 7f 3f dc 29 81 3f e5 90 7e 3f 88 ab 7d 3f
       0.9984268 1.00909 0.9943984 0.9908986
000040 1e 8a 7c 3f cf 46 7d 3f 61 ed 7b 3f f1 47 7a 3f
       0.9864825 0.9893617 0.98409086 0.97766024
000050 19 90 7e 3f 0f 00 7c 3f 30 03 7f 3f 3f 05 7e 3f
       0.99438626 0.9843759 0.9961424 0.99226755
000060 c1 36 7f 3f 36 d9 7d 3f e2 0b 7d 3f 14 5c 7b 3f
       0.9969292 0.9915956 0.98846257 0.98187375
000070 02 61 78 3f dc d0 80 3f 89 5b 80 3f 93 d1 7c 3f
       0.9702302 1.0063739 1.0027934 0.98757285

layernorm1.bias f4 [32]
000000 47 d5 ef bc 42 1f 53 3c d1 8f b2 3b 48 33 2f bb
       -0.029276503 0.01288587 0.005449273 -0.0026733447
000010 5c c5 8d bd a2 8d 35 bc c5 5a 63 bc 8b d9 ab 3c
       -0.06922409 -0.011081131 -0.013876622 0.020977756
000020 e0 23 e9 3c f6 29 0e bc 94 fb f1 3c 54 3d 59 3c
       0.02845949 -0.008676996 0.029538907 0.013259251
000030 dd c1 7e bb 98 63 8f bb 9e 20 8b bc 56 e1 0f 3b
       -0.0038872876 -0.004375886 -0.016983327 0.002195438
000040 f5 76 3c bc a2 58 2b bc ee 9f 79 bc 0d 20 fc bc
       -0.011502971 -0.010458143 -0.015235884 -0.030777002
000050 4b 6c 18 bc 45 43 1a bd 3d 66 f5 3b d1 6c 95 bc
       -0.009303163 -0.03766181 0.0074889944 -0.018240364
000060 21 60 49 bc 8c 31 fb bb 56 de 05 3d a9 9f 00 bd
       -0.012290985 -0.0076658186 0.03268274 -0.031402264
000070 d0 dc f2 3a 5e 1e 8c 3c 88 8b dc bb 73 d6 5b bc
       0.0018528942 0.017104324 -0.0067305006 -0.013417828

blocks.0.fcn_layer.weight f4 [32, 32]
000000 f1 0a 72 3d 48 da cd bd d9 30 c1 bd cf b1 74 3d
       0.059092466 -0.100513995 -0.09433145 0.059739884
000010 6a ef c8 bd a1 a6 33 bd ae e1 a8 3d fb 75 e2 bd
       -0.098112896 -0.04386008 0.0824617 -0.11057659
000020 5d db 54 3d c2 72 89 bc 6c 45 1f 3e a3 52 4e 3e
       0.051967014 -0.016778354 0.15553826 0.20148711
000030 75 ae 04 be 8a 4a 0b bb 60 4b 07 3d 8c 08 3d 3d
       -0.12957175 -0.0021254146 0.033030868 0.04615073
000040 a9 44 07 be 63 29 16 be 0b 74 20 3d d2 29 d4 bc
       -0.13209786 -0.14664225 0.039173167 -0.025898848
000050 7e 80 8b bb 90 ce d8 3d eb 69 f4 3c fd 62 20 bd
       -0.004257261 0.10586274 0.029835662 -0.039156903
000060 6b 00 85 3d 72 5a 32 3e 3a 6d 14 3d 70 e4 e8 3c
       0.0649422 0.17417315 0.03623698 0.02842924
000070 1e 2c 06 be 95 01 d4 3d 0b f8 af bd fe da 11 3d
       -0.13102767 0.10351864 -0.08592232 0.035609238
000080 89 c3 25 be 7b 25 ff bc d9 5b 9f 3d 57 dc 79 3d
       -0.16187872 -0.031145802 0.077811904 0.061001148
000090 4a 15 23 3e f3 d0 5b 3e 8b 93 a0 3d 29 4c a2 3d
       0.1592609 0.21466427 0.078406416 0.07924683
0000a0 a1 bf 4c bc 5d c2 53 3e 3b 98 23 be 49 b0 f7 bc
       -0.01249686 0.20679612 -0.1597604 -0.030235427
0000b0 ee b1 2b 3e 68 a0 1d be 8b 75 0a 3e 4d 3c d1 bd
       0.16767094 -0.15393221 0.13521402 -0.102165796
0000c0 3f 75 20 bd c9 42 14 3e a1 42 62 3d 56 9a 20 3e
       -0.039174315 0.14478602 0.055239324 0.15683874
0000d0 ca 15 78 bd 27 1f 71 3c 92 91 3b be 23 be 4c bd
       -0.060567655 0.0147169 -0.1831725 -0.049986016
0000e0 2e e6 51 3d 14 79 05 3d 56 86 0b be 22 5d 0d be
       0.051244907 0.032586172 -0.13625464 -0.13805059
0000f0 eb 00 8a bd 5f 29 cd bd 80 73 08 be 40 5b 0b be
       -0.06738456 -0.100176565 -0.1332531 -0.13609028
000100 b1 bd b7 bd 32 04 24 3e 33 8f bb bd 25 ac 26 be
       -0.08971728 0.16017225 -0.091581725 -0.16276605
000110 b3 65 94 3d 34 a6 3b 3d d6 fd 77 3d 48 38 ce bd
       0.0724596 0.0458128 0.06054481 -0.100693285
000120 68 72 d0 ba da 16 ee bd d6 b5 2e 3e 6f 4e 18 bd
       -0.0015903236 -0.11625452 0.17061552 -0.037184175
000130 1e 7e 0c 3e b2 7a 0c 3e c7 18 c3 3d 2a de 95 3c
       0.13719985 0.1371868 0.0952621 0.018294413
000140 3a 34 25 3e 07 b6 69 3b a1 2b 0a 3e 0c ad fc 3d
       0.16133204 0.0035661475 0.13493206 0.123376936
000150 ad f1 b5 bd 85 d8 96 3d 62 cf b0 3b 8e 9b 67 bd
       -0.088839866 0.073655166 0.0053958157 -0.056544833
000160 60 9c b6 3c b5 f5 f8 3a b8 60 71 3e 9f 97 c5 bc
       0.022291362 0.0018994125 0.23572052 -0.02412015
000170 34 11 fa bd 23 01 ec 3d 77 68 33 3e 15 4c f3 bc
       -0.122103125 0.11523654 0.17520319 -0.029699365
000180 ff 83 14 3e f1 1e 43 3c a3 d7 ae 3b 33 ea 30 be
       0.14503478 0.0119092325 0.0053357645 -0.1727684
000190 55 4d 3f 3d 4a 96 52 3d ab 9b cb bc 1b 24 08 be
       0.04670461 0.051412858 -0.024854502 -0.13295023
0001a0 3f d7 83 3c 64 8d ef bd 30 97 c1 bd 00 54 dc 3d
       0.016093848 -0.1169689 -0.09452665 0.10758209
0001b0 c5 b0 25 3d d1 50 09 3e cb 80 0a bd 54 33 98 3d
       0.040451784 0.13409735 -0.033814233 0.07431665
0001c0 86 65 22 3e c7 a6 03 3e a9 85 0d be ff b1 b7 bd
       0.1585904 0.1285659 -0.13820519 -0.08969497
0001d0 06 ef 16 3e d6 60 d0 bc 06 80 e4 3d 9e 17 5b 3d
       0.14739618 -0.0254368 0.11157231 0.05348932
0001e0 6b 6f 04 3e f8 ec 3a be d0 90 31 3e 39 0a 19 be
       0.12933128 -0.18254459 0.17340398 -0.14945306
0001f0 8b 81 28 3e 8a 3a a1 bd b0 7b ca bb a5 43 48 bd
       0.16455667 -0.078724936 -0.0061792955 -0.048892636
000200 bf 1a 6e bd 9d 31 83 3c bd a7 7c bd 25 2b 0b 3e
       -0.058130976 0.016014868 -0.061683405 0.13590677
000210 ce 4c 18 3c d7 7e 04 bc ef 0d 05 be 6a af 13 be
       0.009295655 -0.008086882 -0.12993596 -0.14422384
000220 0f 9e cf 3d 01 e0 2e 3d 5e 8d 3e 3e 84 ba 1d 3e
       0.10137569 0.042694096 0.18608615 0.15403181
000230 3b ff 76 3d 13 8e ea 3d 08 4c 0f 3e 5a 73 e6 bd
       0.060302 0.1145288 0.13993847 -0.1125247
000240 03 67 8f bd 06 bc 6f 3c 22 5b 01 3e 49 7f cd 3d
       -0.0700207 0.014632231 0.1263242 0.10034043
000250 34 ef ba bd 6b 21 fa 3c 5f 76 bb bd d6 04 9b bd
       -0.091276556 0.030533513 -0.09153437 -0.07569282
000260 c2 64 f0 bd 8e 58 dd bd 08 49 8b bd 8d de 7e bd
       -0.11737968 -0.10807906 -0.06801039 -0.06222396
000270 29 fc 02 be 0d 54 5b 3e 98 53 82 3c 16 be 13 3e
       -0.12791504 0.21418782 0.015909001 0.14427981
000280 7e 21 10 be 8a 94 1e be 5f 7c ea 3d 49 7b b9 3d
       -0.14075276 -0.1548635 0.11449503 0.09056718
000290 74 ab 33 3e 44 54 00 be 3b cd 77 bd 0e 86 47 3e
       0.17545873 -0.12532145 -0.060498457 0.19484732
0002a0 86 ed d8 bc 80 b2 9f 3c 20 b7 8c bd 1e 07 9a bd
       -0.026480448 0.019494295 -0.06870866 -0.07520889
0002b0 ea 2f e0 3d c6 5c 03 3e 4d e4 08 3e db 7c 59 3d
       0.10946639 0.12828359 0.1336834 0.053097587
0002c0 e3 a3 b0 bd b8 45 fa bc c5 20 7d 3d 8b 4b fc 3c
       -0.08625009 -0.030550823 0.06179883 0.03079774
0002d0 c5 d8 ec bd db 7c cc 3d 19 d7 c6 3d 71 30 4e bd
       -0.11564783 0.09984752 0.09708995 -0.050339166
0002e0 af e8 36 bc 0d 19 2f be de f9 49 3d 39 ea 5e 3d
       -0.0111638745 -0.170994 0.049310558 0.05442259
0002f0 2f 1a 7b 3d ed 77 83 3c 47 a6 be 3c 37 c3 d1 bd
       0.061304267 0.016048396 0.023272647 -0.102423124
000300 2a b8 4e 3d 3e f3 bf 3b 8b 61 f5 3d a7 d4 97 bb
       0.0504686 0.005857854 0.119814955 -0.0046335044
000310 08 18 11 be c2 36 d9 bd b2 f6 aa 3c 8a f3 a4 3d
       -0.14169323 -0.10606147 0.020869587 0.08054264
000320 9c 9a e8 bc ba 77 1d be c6 a5 11 be d9 43 b2 3d
       -0.028394036 -0.15377703 -0.14223394 0.08704347
000330 5c dd 8b bc a5 03 20 be 94 7e be bd fb 1d 0e 3e
       -0.017073326 -0.1562639 -0.093014866 0.13878624
000340 81 68 7a 3d 5c 31 90 3c 90 4b 0a 3e 76 88 05 be
       0.06113482 0.017601661 0.13505387 -0.13040337
000350 8f 4e 18 3e 1e f9 2b 3e b9 90 12 bd 40 f3 e1 bd
       0.14873718 0.1679425 -0.03578255 -0.110327244
000360 5c f3 39 3c 83 44 07 3e 1a 9b dc bd 08 c9 0c 3e
       0.011349525 0.13209729 -0.10771771 0.13748562
000370 fb 1c a5 bd fd f1 56 bd 28 d5 00 be f4 cb 01 be
       -0.08062168 -0.05247687 -0.12581313 -0.12675458
000380 39 b5 26 bd 5c d4 c5 3d ca 8f 5f bc 77 dc f4 3d
       -0.04070017 0.09659645 -0.013645122 0.11956113
000390 51 aa a9 3d ca ac 8d 3d 04 42 28 be 4b 8e d3 bd
       0.082844384 0.069177225 -0.16431433 -0.103298746
0003a0 04 77 03 3e 76 f5 b2 3d fb 8b 84 bb 89 5d 40 3e
       0.1283837 0.08738224 -0.0040450073 0.18785681
0003b0 5d 07 45 3e 90 74 d1 3c 3e 88 c6 bd 96 ed 22 be
       0.1924109 0.025568277 -0.09693955 -0.15910944
0003c0 3b 19 ac 3d 4f ee 19 be 4c ee a5 bd a2 83 16 3e
       0.0840325 -0.15032314 -0.08102092 0.14698651
0003d0 8b 06 32 be 46 d3 1e bc 8e 15 b1 bd b0 ae 10 3e
       -0.17385308 -0.009693926 -0.08646689 0.14129138
0003e0 c1 95 96 3d c4 03 b3 bd 62 5c 6b bd 12 55 05 be
       0.07352782 -0.087409526 -0.05746115 -0.13020733
0003f0 c3 78 36 be e5 2a 2c 3e 35 b3 eb bd de d0 0b be
       -0.17819504 0.16813238 -0.115087904 -0.13653895

blocks.0.fcn_layer.bias f4 [32]
000000 62 68 21 3d a9 c5 f1 3d 01 8a 8c bd a3 0c aa bd
       0.039406188 0.11805279 -0.0686226 -0.083031915
000010 a6 db 68 bd 7c 36 97 bb 4e 8b c6 bd b8 70 69 bd
       -0.056850098 -0.0046146493 -0.09694539 -0.056992263
000020 c6 7f ed 3d a4 fc 13 3e ee 52 11 be 62 98 a3 3d
       0.115966365 0.14451844 -0.14191791 0.07988049
000030 99 60 82 ba cd 37 2b 3e da 7a 0a be b3 b3 04 3e
       -0.0009947001 0.16720505 -0.13523427 0.12959175
000040 05 4b 95 3d ed 43 f1 3d e1 eb ec 3d 39 a1 b6 bd
       0.072896995 0.11780534 0.11568428 -0.089174695
000050 7f 34 32 ba f5 be 17 3d ce 38 8b 3c e7 c4 29 be
       -0.00067979837 0.037047345 0.01699486 -0.16579019
000060 5a d7 0d be c9 c7 b1 3d 9a 95 b9 bc d6 fd cb 3c
       -0.13851681 0.08680684 -0.022654343 0.024901312
000070 62 03 1a 3e cb 50 f7 bc 79 c1 0d bc 0c a7 07 3e
       0.15040353 -0.030189892 -0.0086520845 0.13247317

blocks.0.layer_norm.weight f4 [32]
000000 aa 43 8f 3f a5 3e 85 3f 0e 5c 92 3f b7 78 85 3f
       1.1192524 1.0409743 1.1434343 1.0427464
000010 22 b7 87 3f a9 63 9b 3f 80 39 83 3f 4c f4 88 3f
       1.0602763 1.2139789 1.0251923 1.0699553
000020 49 b3 84 3f 11 1f 82 3f 1f 56 8c 3f 02 c4 7c 3f
       1.0367213 1.0165731 1.0963782 0.98736584
000030 50 13 84 3f a2 81 9e 3f 2a 1b 83 3f c9 8a 9f 3f
       1.0318394 1.2383311 1.0242665 1.2464229
000040 ac a0 9f 3f 2b b0 9e 3f 92 5d 7f 3f c4 e2 60 3f
       1.2470908 1.2397512 0.9975215 0.87846017
000050 cf 20 95 3f 14 dd a5 3f 80 5b 85 3f db 22 ac 3f
       1.1650637 1.2958093 1.0418549 1.3448137
000060 fb 40 82 3f f3 46 9d 3f cb b4 8f 3f 6b 24 9f 3f
       1.017608 1.2287277 1.1227049 1.2432989
000070 61 38 84 3f e0 20 ac 3f 67 2f 8e 3f d9 a2 6c 3f
       1.0329705 1.3447533 1.1108216 0.92435986

blocks.0.layer_norm.bias f4 [32]
000000 eb b1 d1 3d 46 ab 06 3c 62 b3 80 3d 4d 65 be 3c
       0.10239013 0.008219546 0.062842146 0.023241663
000010 61 d8 2b 3d b1 46 6a 3e f4 d8 37 3d 5e 2b 71 3d
       0.041954402 0.22878529 0.044884637 0.05887925
000020 0a b8 11 3d ac 9d 32 3d 4a 5c 52 3d d1 79 b2 bc
       0.035575904 0.0436074 0.051357545 -0.021786602
000030 f2 20 07 3d 60 37 75 3e 33 76 e4 3c 86 2f 72 3e
       0.032990403 0.23946905 0.027888393 0.23650941
000040 ae a6 76 3e 41 77 75 3e 0d ed 46 bc a6 53 cf bd
       0.24087021 0.23971273 -0.012141478 -0.101233765
000050 14 f9 90 3d 7b 58 85 3e ca 43 43 3d 37 1b 92 3e
       0.07078758 0.26044068 0.04767207 0.28536388
000060 b2 63 6b 3c b6 0a 70 3e 76 f8 c8 3d 8a cb 75 3e
       0.014367031 0.23441586 0.09813015 0.24003425
000070 4e 2e 04 3d 31 d7 8f 3e 4f f5 96 3d 4a ac 92 bd
       0.032270722 0.28093866 0.07371008 -0.07161768

last_layer.weight f4 [1, 32]
000000 06 a3 46 3e 60 59 21 3e 21 e4 0e 3e 43 b0 23 3d
       0.19398126 0.1575675 0.13954212 0.03996302
000010 ca 41 66 3d 4d 00 b2 be 75 a4 3a bd 12 ee 70 3e
       0.056215085 -0.34765854 -0.045566995 0.23528317
000020 04 6a 18 3e 40 a2 6c bd 0f 5e 46 3e 67 d3 c4 bc
       0.14884192 -0.05777192 0.19371818 -0.024026586
000030 38 f9 1c 3d f6 3e b0 be 56 8f 2e 3e 99 4b b1 be
       0.03832361 -0.34423035 0.17046866 -0.3462799
000040 19 0a a8 be 91 c4 a8 be c3 e1 56 3c 61 22 82 3c
       -0.32820204 -0.32962468 0.013115349 0.015885534
000050 8e 57 04 3e c4 6e a8 be 25 7a 4a 3e 75 42 b0 be
       0.12924024 -0.32897007 0.19773157 -0.34425703
000060 4b 36 35 bd ef a0 ad be 90 c4 47 3e 72 56 ac be
       -0.04424123 -0.33911845 0.19508576 -0.33659703
000070 40 42 95 3d 01 ea ab be 61 fa 8b 3d d4 29 01 bc
       0.07288027 -0.33576968 0.06834865 -0.007883508
